…
://localhost:8080/"},"id":"ZOMq30H8-UsB","executionInfo":{"status":"ok","timestamp":1655128159756,"user_tz":180,"elapsed":11,"user":{"displayName":"Juan Manuel Álvarez","userId":"00273921071357125422"}},"outputId":"10e016af-c2bb-467c-e51b-7780fe1cae50"},"execution_count":12,"outputs":[{"output_type":"stream","name":"stdout","text":["Model: \"sequential\"\n","_________________________________________________________________\n"," Layer (type)                Output Shape              Param #   \n","=================================================================\n"," dense (Dense)               (None, 64)                4224      \n","                                                                 \n"," dropout (Dropout)           (None, 64)                0         \n","                                                                 \n"," dense_1 (Dense)             (None, 64)                4160      \n","                                                                 \n"," dropout_1 (Dropout)         (None, 64)                0         \n","                                                                 \n"," dense_2 (Dense)             (None, 7)                 455       \n","                                                                 \n"," dropout_2 (Dropout)         (None, 7)                 0         \n","                                                                 \n"," dense_3 (Dense)             (None, 7)                 56        \n","                                                                 \n"," dropout_3 (Dropout)         (None, 7)                 0         \n","                                                                 \n"," dense_4 (Dense)             (None, 1)                 8         \n","                                                                 \n","=================================================================\n","Total params: 8,903\n","Trainable params: 8,903\n","Non-trainable params: 0\n","_________________________________________________________________\n"]}]},{"cell_type":"code","source":["model.compile(loss='binary_crossentropy',metrics='AUC', optimi
…
